…
Sun 08 Sep 2024 05:13:48 INFO 
====Testing====
Baby
The number of users: 19445
Average actions of users: 1.1150424273592183
The number of items: 5549
Average actions of items: 3.907370697422959
The number of inters: 21682
The sparsity of the dataset: 99.97990552482683%
Sun 08 Sep 2024 05:13:51 INFO 

=================================


Sun 08 Sep 2024 05:13:51 INFO =========1/3: Parameters:['reg_weight', 'learning_rate', 'dropout', 'mask_weight_f', 'mask_weight_g', 'align_weight', 'temp', 'seed']=(1e-06, 0.0001, 0.5, None, None, None, 0.2, 999)=======
Sun 08 Sep 2024 05:13:52 INFO MENTOR(
  (mlp): Linear(in_features=128, out_features=128, bias=True)
  (hgnnLayer): HGNNLayer()
  (drop): Dropout(p=0.5, inplace=False)
  (user_embedding): Embedding(19445, 64)
  (item_id_embedding): Embedding(7050, 64)
  (image_embedding): Embedding(7050, 4096)
  (image_trs): Linear(in_features=4096, out_features=64, bias=True)
  (text_embedding): Embedding(7050, 384)
  (text_trs): Linear(in_features=384, out_features=64, bias=True)
  (MLP_user): Linear(in_features=128, out_features=64, bias=True)
  (id_gcn): GCN(
    (MLP): Linear(in_features=64, out_features=256, bias=True)
    (MLP_1): Linear(in_features=256, out_features=64, bias=True)
    (conv_embed_1): Base_gcn(64, 64)
  )
)
Trainable parameters: 35373054
Sun 08 Sep 2024 05:13:53 INFO Loss is nan at epoch: 0, batch index: 1. Exiting.
Sun 08 Sep 2024 05:13:53 INFO best valid result: recall@5: 0.0000    recall@10: 0.0000    recall@20: 0.0000    recall@50: 0.0000    ndcg@5: 0.0000    ndcg@10: 0.0000    ndcg@20: 0.0000    ndcg@50: 0.0000    precision@5: 0.0000    precision@10: 0.0000    precision@20: 0.0000    precision@50: 0.0000    map@5: 0.0000    map@10: 0.0000    map@20: 0.0000    map@50: 0.0000    
…
