…
Fri 16 Aug 2024 12:58:09 INFO 
====Testing====
Baby
The number of users: 19445
Average actions of users: 1.1150424273592183
The number of items: 5549
Average actions of items: 3.907370697422959
The number of inters: 21682
The sparsity of the dataset: 99.97990552482683%
Fri 16 Aug 2024 12:58:12 INFO 

=================================


Fri 16 Aug 2024 12:58:12 INFO =========1/6: Parameters:['reg_weight', 'learning_rate', 'dropout', 'mask_weight_f', 'mask_weight_g', 'align_weight', 'temp', 'seed']=(0.001, 0.0001, 0.5, 1.5, 0.0001, 0.1, 0.2, 999)=======
Fri 16 Aug 2024 12:58:13 INFO MENTOR(
  (mlp): Linear(in_features=128, out_features=128, bias=True)
  (image_embedding): Embedding(7050, 4096)
  (image_trs): Linear(in_features=4096, out_features=64, bias=True)
  (text_embedding): Embedding(7050, 384)
  (text_trs): Linear(in_features=384, out_features=64, bias=True)
  (MLP_user): Linear(in_features=128, out_features=64, bias=True)
  (v_gcn): GCN(
    (MLP): Linear(in_features=4096, out_features=256, bias=True)
    (MLP_1): Linear(in_features=256, out_features=64, bias=True)
    (conv_embed_1): Base_gcn(64, 64)
  )
  (t_gcn): GCN(
    (MLP): Linear(in_features=384, out_features=256, bias=True)
    (MLP_1): Linear(in_features=256, out_features=64, bias=True)
    (conv_embed_1): Base_gcn(64, 64)
  )
  (id_gcn): GCN(
    (MLP): Linear(in_features=64, out_features=256, bias=True)
    (MLP_1): Linear(in_features=256, out_features=64, bias=True)
    (conv_embed_1): Base_gcn(64, 64)
  )
)
Trainable parameters: 37346622
Fri 16 Aug 2024 12:58:15 INFO epoch 0 training [time: 1.73s, train loss: 41.9963]
Fri 16 Aug 2024 12:58:19 INFO epoch 0 evaluating [time: 2.33s, valid_score: 0.030500]
Fri 16 Aug 2024 12:58:19 INFO valid result: 
recall@5: 0.0198    recall@10: 0.0305    recall@20: 0.0505    recall@50: 0.0953    ndcg@5: 0.0129    ndcg@10: 0.0163    ndcg@20: 0.0214    ndcg@50: 0.0303    precision@5: 0.0041    precision@10: 0.0032    precision@20: 0.0027    precision@50: 0.0020    map@5: 0.0105    map@10: 0.0119    map@20: 0.0132    map@50: 0.0146    
…
