…
Fri 30 Aug 2024 21:50:37 INFO 
====Testing====
Baby
The number of users: 19445
Average actions of users: 1.1150424273592183
The number of items: 5549
Average actions of items: 3.907370697422959
The number of inters: 21682
The sparsity of the dataset: 99.97990552482683%
Fri 30 Aug 2024 21:50:40 INFO 

=================================


Fri 30 Aug 2024 21:50:40 INFO =========1/3: Parameters:['reg_weight', 'learning_rate', 'dropout', 'mask_weight_f', 'mask_weight_g', 'align_weight', 'temp', 'seed']=(1e-06, 0.0001, 0.5, None, None, None, 0.2, 999)=======
Fri 30 Aug 2024 21:50:41 INFO MENTOR(
  (mlp): Linear(in_features=128, out_features=128, bias=True)
  (image_embedding): Embedding(7050, 4096)
  (image_trs): Linear(in_features=4096, out_features=64, bias=True)
  (text_embedding): Embedding(7050, 384)
  (text_trs): Linear(in_features=384, out_features=64, bias=True)
  (MLP_user): Linear(in_features=128, out_features=64, bias=True)
  (v_gcn): GCN(
    (MLP): Linear(in_features=4096, out_features=256, bias=True)
    (MLP_1): Linear(in_features=256, out_features=64, bias=True)
    (conv_embed_1): Base_gcn(64, 64)
  )
  (t_gcn): GCN(
    (MLP): Linear(in_features=384, out_features=256, bias=True)
    (MLP_1): Linear(in_features=256, out_features=64, bias=True)
    (conv_embed_1): Base_gcn(64, 64)
  )
  (id_gcn): GCN(
    (MLP): Linear(in_features=64, out_features=256, bias=True)
    (MLP_1): Linear(in_features=256, out_features=64, bias=True)
    (conv_embed_1): Base_gcn(64, 64)
  )
)
Trainable parameters: 37489982
Fri 30 Aug 2024 21:50:43 INFO epoch 0 training [time: 1.98s, train loss: 40.1158]
Fri 30 Aug 2024 21:50:46 INFO epoch 0 evaluating [time: 1.68s, valid_score: 0.030900]
Fri 30 Aug 2024 21:50:46 INFO valid result: 
recall@5: 0.0204    recall@10: 0.0309    recall@20: 0.0511    recall@50: 0.0966    ndcg@5: 0.0132    ndcg@10: 0.0167    ndcg@20: 0.0218    ndcg@50: 0.0308    precision@5: 0.0042    precision@10: 0.0033    precision@20: 0.0027    precision@50: 0.0020    map@5: 0.0107    map@10: 0.0121    map@20: 0.0135    map@50: 0.0149    
…
