…
Wed 14 Aug 2024 21:58:17 INFO 
====Testing====
Baby
The number of users: 19445
Average actions of users: 1.1150424273592183
The number of items: 5549
Average actions of items: 3.907370697422959
The number of inters: 21682
The sparsity of the dataset: 99.97990552482683%
Wed 14 Aug 2024 21:58:20 INFO 

=================================


Wed 14 Aug 2024 21:58:20 INFO =========1/6: Parameters:['reg_weight', 'learning_rate', 'dropout', 'mask_weight_f', 'mask_weight_g', 'align_weight', 'temp', 'seed']=(0.001, 0.0001, 0.5, 1.5, 0.0001, 0.1, 0.2, 999)=======
Wed 14 Aug 2024 21:58:21 INFO MENTOR(
  (mlp): Linear(in_features=128, out_features=128, bias=True)
  (image_embedding): Embedding(7050, 4096)
  (image_trs): Linear(in_features=4096, out_features=64, bias=True)
  (text_embedding): Embedding(7050, 384)
  (text_trs): Linear(in_features=384, out_features=64, bias=True)
  (MLP_user): Linear(in_features=128, out_features=64, bias=True)
  (v_gcn): GCN(
    (MLP): Linear(in_features=4096, out_features=256, bias=True)
    (MLP_1): Linear(in_features=256, out_features=64, bias=True)
    (conv_embed_1): Base_gcn(64, 64)
  )
  (v_gcn_n1): GCN(
    (MLP): Linear(in_features=4096, out_features=256, bias=True)
    (MLP_1): Linear(in_features=256, out_features=64, bias=True)
    (conv_embed_1): Base_gcn(64, 64)
  )
  (v_gcn_n2): GCN(
    (MLP): Linear(in_features=4096, out_features=256, bias=True)
    (MLP_1): Linear(in_features=256, out_features=64, bias=True)
    (conv_embed_1): Base_gcn(64, 64)
  )
  (t_gcn): GCN(
    (MLP): Linear(in_features=384, out_features=256, bias=True)
    (MLP_1): Linear(in_features=256, out_features=64, bias=True)
    (conv_embed_1): Base_gcn(64, 64)
  )
  (t_gcn_n1): GCN(
    (MLP): Linear(in_features=384, out_features=256, bias=True)
    (MLP_1): Linear(in_features=256, out_features=64, bias=True)
    (conv_embed_1): Base_gcn(64, 64)
  )
  (t_gcn_n2): GCN(
    (MLP): Linear(in_features=384, out_features=256, bias=True)
    (MLP_1): Linear(in_features=256, out_features=64, bias=True)
    (conv_embed_1): Base_gcn(64, 64)
  )
  (id_gcn): GCN(
    (MLP): Linear(in_features=64, out_features=256, bias=True)
    (MLP_1): Linear(in_features=256, out_features=64, bias=True)
    (conv_embed_1): Base_gcn(64, 64)
  )
)
Trainable parameters: 44685118
Wed 14 Aug 2024 21:58:31 INFO epoch 0 training [time: 9.46s, train loss: 220.4223]
Wed 14 Aug 2024 21:58:35 INFO epoch 0 evaluating [time: 1.85s, valid_score: 0.029600]
Wed 14 Aug 2024 21:58:35 INFO valid result: 
recall@5: 0.0197    recall@10: 0.0296    recall@20: 0.0485    recall@50: 0.0921    ndcg@5: 0.0128    ndcg@10: 0.0161    ndcg@20: 0.0209    ndcg@50: 0.0296    precision@5: 0.0041    precision@10: 0.0031    precision@20: 0.0026    precision@50: 0.0019    map@5: 0.0104    map@10: 0.0118    map@20: 0.0130    map@50: 0.0144    
…
