…
====Testing====
Baby
The number of users: 19445
Average actions of users: 1.1150424273592183
The number of items: 5549
Average actions of items: 3.907370697422959
The number of inters: 21682
The sparsity of the dataset: 99.97990552482683%
Fri 30 Aug 2024 16:07:12 INFO 

=================================


Fri 30 Aug 2024 16:07:12 INFO =========1/3: Parameters:['reg_weight', 'learning_rate', 'dropout', 'mask_weight_f', 'mask_weight_g', 'align_weight', 'temp', 'seed']=(1e-06, 0.0001, 0.5, None, None, None, 0.2, 999)=======
Fri 30 Aug 2024 16:07:15 INFO MENTOR(
  (hgnnLayer): HGNNLayer()
  (mlp): Linear(in_features=128, out_features=128, bias=True)
  (drop): Dropout(p=0.5, inplace=False)
  (image_embedding): Embedding(7050, 4096)
  (image_trs): Linear(in_features=4096, out_features=64, bias=True)
  (text_embedding): Embedding(7050, 384)
  (text_trs): Linear(in_features=384, out_features=64, bias=True)
  (user_embedding): Embedding(19445, 64)
  (item_id_embedding): Embedding(7050, 64)
  (MLP_user): Linear(in_features=128, out_features=64, bias=True)
  (id_gcn): GCN(
    (MLP): Linear(in_features=64, out_features=256, bias=True)
    (MLP_1): Linear(in_features=256, out_features=64, bias=True)
    (conv_embed_1): Base_gcn(64, 64)
  )
)
Trainable parameters: 35373054
Fri 30 Aug 2024 16:07:17 INFO epoch 0 training [time: 2.04s, train loss: 267.3158]
Fri 30 Aug 2024 16:07:20 INFO epoch 0 evaluating [time: 1.68s, valid_score: 0.001700]
Fri 30 Aug 2024 16:07:20 INFO valid result: 
recall@5: 0.0008    recall@10: 0.0017    recall@20: 0.0030    recall@50: 0.0089    ndcg@5: 0.0005    ndcg@10: 0.0008    ndcg@20: 0.0011    ndcg@50: 0.0023    precision@5: 0.0002    precision@10: 0.0002    precision@20: 0.0002    precision@50: 0.0002    map@5: 0.0004    map@10: 0.0006    map@20: 0.0006    map@50: 0.0008    
…
